{"format": "layers-model", "generatedBy": null, "convertedBy": "TensorFlow.js Converter v1.3.2", "modelTopology": null, "weightsManifest": [{"paths": ["group1-shard1of3.bin", "group1-shard2of3.bin", "group1-shard3of3.bin"], "weights": [{"name": "bbn_stage1_block1_conv/kernel", "shape": [3, 3, 3, 32], "dtype": "float32"}, {"name": "bbn_stage1_block1_bn/gamma", "shape": [32], "dtype": "float32"}, {"name": "bbn_stage1_block1_bn/beta", "shape": [32], "dtype": "float32"}, {"name": "bbn_stage1_block1_bn/moving_mean", "shape": [32], "dtype": "float32"}, {"name": "bbn_stage1_block1_bn/moving_variance", "shape": [32], "dtype": "float32"}, {"name": "bbn_stage1_block2_dw_conv/depthwise_kernel", "shape": [3, 3, 32, 1], "dtype": "float32"}, {"name": "bbn_stage1_block2_dw_bn/gamma", "shape": [32], "dtype": "float32"}, {"name": "bbn_stage1_block2_dw_bn/beta", "shape": [32], "dtype": "float32"}, {"name": "bbn_stage1_block2_dw_bn/moving_mean", "shape": [32], "dtype": "float32"}, {"name": "bbn_stage1_block2_dw_bn/moving_variance", "shape": [32], "dtype": "float32"}, {"name": "bbn_stage1_block2_project_conv/kernel", "shape": [1, 1, 32, 16], "dtype": "float32"}, {"name": "bbn_stage1_block2_project_bn/gamma", "shape": [16], "dtype": "float32"}, {"name": "bbn_stage1_block2_project_bn/beta", "shape": [16], "dtype": "float32"}, {"name": "bbn_stage1_block2_project_bn/moving_mean", "shape": [16], "dtype": "float32"}, {"name": "bbn_stage1_block2_project_bn/moving_variance", "shape": [16], "dtype": "float32"}, {"name": "bbn_stage2_block1_expand_conv/kernel", "shape": [1, 1, 16, 96], "dtype": "float32"}, {"name": "bbn_stage2_block1_expand_bn/gamma", "shape": [96], "dtype": "float32"}, {"name": "bbn_stage2_block1_expand_bn/beta", "shape": [96], "dtype": "float32"}, {"name": "bbn_stage2_block1_expand_bn/moving_mean", "shape": [96], "dtype": "float32"}, {"name": "bbn_stage2_block1_expand_bn/moving_variance", "shape": [96], "dtype": "float32"}, {"name": "bbn_stage2_block1_dw_conv/depthwise_kernel", "shape": [3, 3, 96, 1], "dtype": "float32"}, {"name": "bbn_stage2_block1_dw_bn/gamma", "shape": [96], "dtype": "float32"}, {"name": "bbn_stage2_block1_dw_bn/beta", "shape": [96], "dtype": "float32"}, {"name": "bbn_stage2_block1_dw_bn/moving_mean", "shape": [96], "dtype": "float32"}, {"name": "bbn_stage2_block1_dw_bn/moving_variance", "shape": [96], "dtype": "float32"}, {"name": "bbn_stage2_block1_project_conv/kernel", "shape": [1, 1, 96, 24], "dtype": "float32"}, {"name": "bbn_stage2_block1_project_bn/gamma", "shape": [24], "dtype": "float32"}, {"name": "bbn_stage2_block1_project_bn/beta", "shape": [24], "dtype": "float32"}, {"name": "bbn_stage2_block1_project_bn/moving_mean", "shape": [24], "dtype": "float32"}, {"name": "bbn_stage2_block1_project_bn/moving_variance", "shape": [24], "dtype": "float32"}, {"name": "bbn_stage2_block2_expand_conv/kernel", "shape": [1, 1, 24, 144], "dtype": "float32"}, {"name": "bbn_stage2_block2_expand_bn/gamma", "shape": [144], "dtype": "float32"}, {"name": "bbn_stage2_block2_expand_bn/beta", "shape": [144], "dtype": "float32"}, {"name": "bbn_stage2_block2_expand_bn/moving_mean", "shape": [144], "dtype": "float32"}, {"name": "bbn_stage2_block2_expand_bn/moving_variance", "shape": [144], "dtype": "float32"}, {"name": "bbn_stage2_block2_dw_conv/depthwise_kernel", "shape": [3, 3, 144, 1], "dtype": "float32"}, {"name": "bbn_stage2_block2_dw_bn/gamma", "shape": [144], "dtype": "float32"}, {"name": "bbn_stage2_block2_dw_bn/beta", "shape": [144], "dtype": "float32"}, {"name": "bbn_stage2_block2_dw_bn/moving_mean", "shape": [144], "dtype": "float32"}, {"name": "bbn_stage2_block2_dw_bn/moving_variance", "shape": [144], "dtype": "float32"}, {"name": "bbn_stage2_block2_project_conv/kernel", "shape": [1, 1, 144, 24], "dtype": "float32"}, {"name": "bbn_stage2_block2_project_bn/gamma", "shape": [24], "dtype": "float32"}, {"name": "bbn_stage2_block2_project_bn/beta", "shape": [24], "dtype": "float32"}, {"name": "bbn_stage2_block2_project_bn/moving_mean", "shape": [24], "dtype": "float32"}, {"name": "bbn_stage2_block2_project_bn/moving_variance", "shape": [24], "dtype": "float32"}, {"name": "bbn_stage3_block1_expand_conv/kernel", "shape": [1, 1, 24, 144], "dtype": "float32"}, {"name": "bbn_stage3_block1_expand_bn/gamma", "shape": [144], "dtype": "float32"}, {"name": "bbn_stage3_block1_expand_bn/beta", "shape": [144], "dtype": "float32"}, {"name": "bbn_stage3_block1_expand_bn/moving_mean", "shape": [144], "dtype": "float32"}, {"name": "bbn_stage3_block1_expand_bn/moving_variance", "shape": [144], "dtype": "float32"}, {"name": "bbn_stage3_block1_dw_conv/depthwise_kernel", "shape": [3, 3, 144, 1], "dtype": "float32"}, {"name": "bbn_stage3_block1_dw_bn/gamma", "shape": [144], "dtype": "float32"}, {"name": "bbn_stage3_block1_dw_bn/beta", "shape": [144], "dtype": "float32"}, {"name": "bbn_stage3_block1_dw_bn/moving_mean", "shape": [144], "dtype": "float32"}, {"name": "bbn_stage3_block1_dw_bn/moving_variance", "shape": [144], "dtype": "float32"}, {"name": "bbn_stage3_block1_project_conv/kernel", "shape": [1, 1, 144, 32], "dtype": "float32"}, {"name": "bbn_stage3_block1_project_bn/gamma", "shape": [32], "dtype": "float32"}, {"name": "bbn_stage3_block1_project_bn/beta", "shape": [32], "dtype": "float32"}, {"name": "bbn_stage3_block1_project_bn/moving_mean", "shape": [32], "dtype": "float32"}, {"name": "bbn_stage3_block1_project_bn/moving_variance", "shape": [32], "dtype": "float32"}, {"name": "bbn_stage3_block2_expand_conv/kernel", "shape": [1, 1, 32, 192], "dtype": "float32"}, {"name": "bbn_stage3_block2_expand_bn/gamma", "shape": [192], "dtype": "float32"}, {"name": "bbn_stage3_block2_expand_bn/beta", "shape": [192], "dtype": "float32"}, {"name": "bbn_stage3_block2_expand_bn/moving_mean", "shape": [192], "dtype": "float32"}, {"name": "bbn_stage3_block2_expand_bn/moving_variance", "shape": [192], "dtype": "float32"}, {"name": "bbn_stage3_block2_dw_conv/depthwise_kernel", "shape": [3, 3, 192, 1], "dtype": "float32"}, {"name": "bbn_stage3_block2_dw_bn/gamma", "shape": [192], "dtype": "float32"}, {"name": "bbn_stage3_block2_dw_bn/beta", "shape": [192], "dtype": "float32"}, {"name": "bbn_stage3_block2_dw_bn/moving_mean", "shape": [192], "dtype": "float32"}, {"name": "bbn_stage3_block2_dw_bn/moving_variance", "shape": [192], "dtype": "float32"}, {"name": "bbn_stage3_block2_project_conv/kernel", "shape": [1, 1, 192, 32], "dtype": "float32"}, {"name": "bbn_stage3_block2_project_bn/gamma", "shape": [32], "dtype": "float32"}, {"name": "bbn_stage3_block2_project_bn/beta", "shape": [32], "dtype": "float32"}, {"name": "bbn_stage3_block2_project_bn/moving_mean", "shape": [32], "dtype": "float32"}, {"name": "bbn_stage3_block2_project_bn/moving_variance", "shape": [32], "dtype": "float32"}, {"name": "bbn_stage3_block3_expand_conv/kernel", "shape": [1, 1, 32, 192], "dtype": "float32"}, {"name": "bbn_stage3_block3_expand_bn/gamma", "shape": [192], "dtype": "float32"}, {"name": "bbn_stage3_block3_expand_bn/beta", "shape": [192], "dtype": "float32"}, {"name": "bbn_stage3_block3_expand_bn/moving_mean", "shape": [192], "dtype": "float32"}, {"name": "bbn_stage3_block3_expand_bn/moving_variance", "shape": [192], "dtype": "float32"}, {"name": "bbn_stage3_block3_dw_conv/depthwise_kernel", "shape": [3, 3, 192, 1], "dtype": "float32"}, {"name": "bbn_stage3_block3_dw_bn/gamma", "shape": [192], "dtype": "float32"}, {"name": "bbn_stage3_block3_dw_bn/beta", "shape": [192], "dtype": "float32"}, {"name": "bbn_stage3_block3_dw_bn/moving_mean", "shape": [192], "dtype": "float32"}, {"name": "bbn_stage3_block3_dw_bn/moving_variance", "shape": [192], "dtype": "float32"}, {"name": "bbn_stage3_block3_project_conv/kernel", "shape": [1, 1, 192, 32], "dtype": "float32"}, {"name": "bbn_stage3_block3_project_bn/gamma", "shape": [32], "dtype": "float32"}, {"name": "bbn_stage3_block3_project_bn/beta", "shape": [32], "dtype": "float32"}, {"name": "bbn_stage3_block3_project_bn/moving_mean", "shape": [32], "dtype": "float32"}, {"name": "bbn_stage3_block3_project_bn/moving_variance", "shape": [32], "dtype": "float32"}, {"name": "bbn_stage4_block1_expand_conv/kernel", "shape": [1, 1, 32, 192], "dtype": "float32"}, {"name": "bbn_stage4_block1_expand_bn/gamma", "shape": [192], "dtype": "float32"}, {"name": "bbn_stage4_block1_expand_bn/beta", "shape": [192], "dtype": "float32"}, {"name": "bbn_stage4_block1_expand_bn/moving_mean", "shape": [192], "dtype": "float32"}, {"name": "bbn_stage4_block1_expand_bn/moving_variance", "shape": [192], "dtype": "float32"}, {"name": "bbn_stage4_block1_dw_conv/depthwise_kernel", "shape": [3, 3, 192, 1], "dtype": "float32"}, {"name": "bbn_stage4_block1_dw_bn/gamma", "shape": [192], "dtype": "float32"}, {"name": "bbn_stage4_block1_dw_bn/beta", "shape": [192], "dtype": "float32"}, {"name": "bbn_stage4_block1_dw_bn/moving_mean", "shape": [192], "dtype": "float32"}, {"name": "bbn_stage4_block1_dw_bn/moving_variance", "shape": [192], "dtype": "float32"}, {"name": "bbn_stage4_block1_project_conv/kernel", "shape": [1, 1, 192, 64], "dtype": "float32"}, {"name": "bbn_stage4_block1_project_bn/gamma", "shape": [64], "dtype": "float32"}, {"name": "bbn_stage4_block1_project_bn/beta", "shape": [64], "dtype": "float32"}, {"name": "bbn_stage4_block1_project_bn/moving_mean", "shape": [64], "dtype": "float32"}, {"name": "bbn_stage4_block1_project_bn/moving_variance", "shape": [64], "dtype": "float32"}, {"name": "bbn_stage4_block2_expand_conv/kernel", "shape": [1, 1, 64, 384], "dtype": "float32"}, {"name": "bbn_stage4_block2_expand_bn/gamma", "shape": [384], "dtype": "float32"}, {"name": "bbn_stage4_block2_expand_bn/beta", "shape": [384], "dtype": "float32"}, {"name": "bbn_stage4_block2_expand_bn/moving_mean", "shape": [384], "dtype": "float32"}, {"name": "bbn_stage4_block2_expand_bn/moving_variance", "shape": [384], "dtype": "float32"}, {"name": "bbn_stage4_block2_dw_conv/depthwise_kernel", "shape": [3, 3, 384, 1], "dtype": "float32"}, {"name": "bbn_stage4_block2_dw_bn/gamma", "shape": [384], "dtype": "float32"}, {"name": "bbn_stage4_block2_dw_bn/beta", "shape": [384], "dtype": "float32"}, {"name": "bbn_stage4_block2_dw_bn/moving_mean", "shape": [384], "dtype": "float32"}, {"name": "bbn_stage4_block2_dw_bn/moving_variance", "shape": [384], "dtype": "float32"}, {"name": "bbn_stage4_block2_project_conv/kernel", "shape": [1, 1, 384, 64], "dtype": "float32"}, {"name": "bbn_stage4_block2_project_bn/gamma", "shape": [64], "dtype": "float32"}, {"name": "bbn_stage4_block2_project_bn/beta", "shape": [64], "dtype": "float32"}, {"name": "bbn_stage4_block2_project_bn/moving_mean", "shape": [64], "dtype": "float32"}, {"name": "bbn_stage4_block2_project_bn/moving_variance", "shape": [64], "dtype": "float32"}, {"name": "bbn_stage4_block3_expand_conv/kernel", "shape": [1, 1, 64, 384], "dtype": "float32"}, {"name": "bbn_stage4_block3_expand_bn/gamma", "shape": [384], "dtype": "float32"}, {"name": "bbn_stage4_block3_expand_bn/beta", "shape": [384], "dtype": "float32"}, {"name": "bbn_stage4_block3_expand_bn/moving_mean", "shape": [384], "dtype": "float32"}, {"name": "bbn_stage4_block3_expand_bn/moving_variance", "shape": [384], "dtype": "float32"}, {"name": "bbn_stage4_block3_dw_conv/depthwise_kernel", "shape": [3, 3, 384, 1], "dtype": "float32"}, {"name": "bbn_stage4_block3_dw_bn/gamma", "shape": [384], "dtype": "float32"}, {"name": "bbn_stage4_block3_dw_bn/beta", "shape": [384], "dtype": "float32"}, {"name": "bbn_stage4_block3_dw_bn/moving_mean", "shape": [384], "dtype": "float32"}, {"name": "bbn_stage4_block3_dw_bn/moving_variance", "shape": [384], "dtype": "float32"}, {"name": "bbn_stage4_block3_project_conv/kernel", "shape": [1, 1, 384, 64], "dtype": "float32"}, {"name": "bbn_stage4_block3_project_bn/gamma", "shape": [64], "dtype": "float32"}, {"name": "bbn_stage4_block3_project_bn/beta", "shape": [64], "dtype": "float32"}, {"name": "bbn_stage4_block3_project_bn/moving_mean", "shape": [64], "dtype": "float32"}, {"name": "bbn_stage4_block3_project_bn/moving_variance", "shape": [64], "dtype": "float32"}, {"name": "bbn_stage4_block4_expand_conv/kernel", "shape": [1, 1, 64, 384], "dtype": "float32"}, {"name": "bbn_stage4_block4_expand_bn/gamma", "shape": [384], "dtype": "float32"}, {"name": "bbn_stage4_block4_expand_bn/beta", "shape": [384], "dtype": "float32"}, {"name": "bbn_stage4_block4_expand_bn/moving_mean", "shape": [384], "dtype": "float32"}, {"name": "bbn_stage4_block4_expand_bn/moving_variance", "shape": [384], "dtype": "float32"}, {"name": "bbn_stage4_block4_dw_conv/depthwise_kernel", "shape": [3, 3, 384, 1], "dtype": "float32"}, {"name": "bbn_stage4_block4_dw_bn/gamma", "shape": [384], "dtype": "float32"}, {"name": "bbn_stage4_block4_dw_bn/beta", "shape": [384], "dtype": "float32"}, {"name": "bbn_stage4_block4_dw_bn/moving_mean", "shape": [384], "dtype": "float32"}, {"name": "bbn_stage4_block4_dw_bn/moving_variance", "shape": [384], "dtype": "float32"}, {"name": "bbn_stage4_block4_project_conv/kernel", "shape": [1, 1, 384, 64], "dtype": "float32"}, {"name": "bbn_stage4_block4_project_bn/gamma", "shape": [64], "dtype": "float32"}, {"name": "bbn_stage4_block4_project_bn/beta", "shape": [64], "dtype": "float32"}, {"name": "bbn_stage4_block4_project_bn/moving_mean", "shape": [64], "dtype": "float32"}, {"name": "bbn_stage4_block4_project_bn/moving_variance", "shape": [64], "dtype": "float32"}, {"name": "bbn_stage4_block5_expand_conv/kernel", "shape": [1, 1, 64, 384], "dtype": "float32"}, {"name": "bbn_stage4_block5_expand_bn/gamma", "shape": [384], "dtype": "float32"}, {"name": "bbn_stage4_block5_expand_bn/beta", "shape": [384], "dtype": "float32"}, {"name": "bbn_stage4_block5_expand_bn/moving_mean", "shape": [384], "dtype": "float32"}, {"name": "bbn_stage4_block5_expand_bn/moving_variance", "shape": [384], "dtype": "float32"}, {"name": "bbn_stage4_block5_dw_conv/depthwise_kernel", "shape": [3, 3, 384, 1], "dtype": "float32"}, {"name": "bbn_stage4_block5_dw_bn/gamma", "shape": [384], "dtype": "float32"}, {"name": "bbn_stage4_block5_dw_bn/beta", "shape": [384], "dtype": "float32"}, {"name": "bbn_stage4_block5_dw_bn/moving_mean", "shape": [384], "dtype": "float32"}, {"name": "bbn_stage4_block5_dw_bn/moving_variance", "shape": [384], "dtype": "float32"}, {"name": "bbn_stage4_block5_project_conv/kernel", "shape": [1, 1, 384, 96], "dtype": "float32"}, {"name": "bbn_stage4_block5_project_bn/gamma", "shape": [96], "dtype": "float32"}, {"name": "bbn_stage4_block5_project_bn/beta", "shape": [96], "dtype": "float32"}, {"name": "bbn_stage4_block5_project_bn/moving_mean", "shape": [96], "dtype": "float32"}, {"name": "bbn_stage4_block5_project_bn/moving_variance", "shape": [96], "dtype": "float32"}, {"name": "bbn_stage4_block6_expand_conv/kernel", "shape": [1, 1, 96, 576], "dtype": "float32"}, {"name": "bbn_stage4_block6_expand_bn/gamma", "shape": [576], "dtype": "float32"}, {"name": "bbn_stage4_block6_expand_bn/beta", "shape": [576], "dtype": "float32"}, {"name": "bbn_stage4_block6_expand_bn/moving_mean", "shape": [576], "dtype": "float32"}, {"name": "bbn_stage4_block6_expand_bn/moving_variance", "shape": [576], "dtype": "float32"}, {"name": "bbn_stage4_block6_dw_conv/depthwise_kernel", "shape": [3, 3, 576, 1], "dtype": "float32"}, {"name": "bbn_stage4_block6_dw_bn/gamma", "shape": [576], "dtype": "float32"}, {"name": "bbn_stage4_block6_dw_bn/beta", "shape": [576], "dtype": "float32"}, {"name": "bbn_stage4_block6_dw_bn/moving_mean", "shape": [576], "dtype": "float32"}, {"name": "bbn_stage4_block6_dw_bn/moving_variance", "shape": [576], "dtype": "float32"}, {"name": "bbn_stage4_block6_project_conv/kernel", "shape": [1, 1, 576, 96], "dtype": "float32"}, {"name": "bbn_stage4_block6_project_bn/gamma", "shape": [96], "dtype": "float32"}, {"name": "bbn_stage4_block6_project_bn/beta", "shape": [96], "dtype": "float32"}, {"name": "bbn_stage4_block6_project_bn/moving_mean", "shape": [96], "dtype": "float32"}, {"name": "bbn_stage4_block6_project_bn/moving_variance", "shape": [96], "dtype": "float32"}, {"name": "bbn_stage4_block7_expand_conv/kernel", "shape": [1, 1, 96, 576], "dtype": "float32"}, {"name": "bbn_stage4_block7_expand_bn/gamma", "shape": [576], "dtype": "float32"}, {"name": "bbn_stage4_block7_expand_bn/beta", "shape": [576], "dtype": "float32"}, {"name": "bbn_stage4_block7_expand_bn/moving_mean", "shape": [576], "dtype": "float32"}, {"name": "bbn_stage4_block7_expand_bn/moving_variance", "shape": [576], "dtype": "float32"}, {"name": "bbn_stage4_block7_dw_conv/depthwise_kernel", "shape": [3, 3, 576, 1], "dtype": "float32"}, {"name": "bbn_stage4_block7_dw_bn/gamma", "shape": [576], "dtype": "float32"}, {"name": "bbn_stage4_block7_dw_bn/beta", "shape": [576], "dtype": "float32"}, {"name": "bbn_stage4_block7_dw_bn/moving_mean", "shape": [576], "dtype": "float32"}, {"name": "bbn_stage4_block7_dw_bn/moving_variance", "shape": [576], "dtype": "float32"}, {"name": "bbn_stage4_block7_project_conv/kernel", "shape": [1, 1, 576, 96], "dtype": "float32"}, {"name": "bbn_stage4_block7_project_bn/gamma", "shape": [96], "dtype": "float32"}, {"name": "bbn_stage4_block7_project_bn/beta", "shape": [96], "dtype": "float32"}, {"name": "bbn_stage4_block7_project_bn/moving_mean", "shape": [96], "dtype": "float32"}, {"name": "bbn_stage4_block7_project_bn/moving_variance", "shape": [96], "dtype": "float32"}, {"name": "bbn_stage5_block1_expand_conv/kernel", "shape": [1, 1, 96, 576], "dtype": "float32"}, {"name": "bbn_stage5_block1_expand_bn/gamma", "shape": [576], "dtype": "float32"}, {"name": "bbn_stage5_block1_expand_bn/beta", "shape": [576], "dtype": "float32"}, {"name": "bbn_stage5_block1_expand_bn/moving_mean", "shape": [576], "dtype": "float32"}, {"name": "bbn_stage5_block1_expand_bn/moving_variance", "shape": [576], "dtype": "float32"}, {"name": "bbn_stage5_block1_dw_conv/depthwise_kernel", "shape": [3, 3, 576, 1], "dtype": "float32"}, {"name": "bbn_stage5_block1_dw_bn/gamma", "shape": [576], "dtype": "float32"}, {"name": "bbn_stage5_block1_dw_bn/beta", "shape": [576], "dtype": "float32"}, {"name": "bbn_stage5_block1_dw_bn/moving_mean", "shape": [576], "dtype": "float32"}, {"name": "bbn_stage5_block1_dw_bn/moving_variance", "shape": [576], "dtype": "float32"}, {"name": "bbn_stage5_block1_project_conv/kernel", "shape": [1, 1, 576, 160], "dtype": "float32"}, {"name": "bbn_stage5_block1_project_bn/gamma", "shape": [160], "dtype": "float32"}, {"name": "bbn_stage5_block1_project_bn/beta", "shape": [160], "dtype": "float32"}, {"name": "bbn_stage5_block1_project_bn/moving_mean", "shape": [160], "dtype": "float32"}, {"name": "bbn_stage5_block1_project_bn/moving_variance", "shape": [160], "dtype": "float32"}, {"name": "bbn_stage5_block2_expand_conv/kernel", "shape": [1, 1, 160, 960], "dtype": "float32"}, {"name": "bbn_stage5_block2_expand_bn/gamma", "shape": [960], "dtype": "float32"}, {"name": "bbn_stage5_block2_expand_bn/beta", "shape": [960], "dtype": "float32"}, {"name": "bbn_stage5_block2_expand_bn/moving_mean", "shape": [960], "dtype": "float32"}, {"name": "bbn_stage5_block2_expand_bn/moving_variance", "shape": [960], "dtype": "float32"}, {"name": "bbn_stage5_block2_dw_conv/depthwise_kernel", "shape": [3, 3, 960, 1], "dtype": "float32"}, {"name": "bbn_stage5_block2_dw_bn/gamma", "shape": [960], "dtype": "float32"}, {"name": "bbn_stage5_block2_dw_bn/beta", "shape": [960], "dtype": "float32"}, {"name": "bbn_stage5_block2_dw_bn/moving_mean", "shape": [960], "dtype": "float32"}, {"name": "bbn_stage5_block2_dw_bn/moving_variance", "shape": [960], "dtype": "float32"}, {"name": "bbn_stage5_block2_project_conv/kernel", "shape": [1, 1, 960, 160], "dtype": "float32"}, {"name": "bbn_stage5_block2_project_bn/gamma", "shape": [160], "dtype": "float32"}, {"name": "bbn_stage5_block2_project_bn/beta", "shape": [160], "dtype": "float32"}, {"name": "bbn_stage5_block2_project_bn/moving_mean", "shape": [160], "dtype": "float32"}, {"name": "bbn_stage5_block2_project_bn/moving_variance", "shape": [160], "dtype": "float32"}, {"name": "bbn_stage5_block3_expand_conv/kernel", "shape": [1, 1, 160, 960], "dtype": "float32"}, {"name": "bbn_stage5_block3_expand_bn/gamma", "shape": [960], "dtype": "float32"}, {"name": "bbn_stage5_block3_expand_bn/beta", "shape": [960], "dtype": "float32"}, {"name": "bbn_stage5_block3_expand_bn/moving_mean", "shape": [960], "dtype": "float32"}, {"name": "bbn_stage5_block3_expand_bn/moving_variance", "shape": [960], "dtype": "float32"}, {"name": "bbn_stage5_block3_dw_conv/depthwise_kernel", "shape": [3, 3, 960, 1], "dtype": "float32"}, {"name": "bbn_stage5_block3_dw_bn/gamma", "shape": [960], "dtype": "float32"}, {"name": "bbn_stage5_block3_dw_bn/beta", "shape": [960], "dtype": "float32"}, {"name": "bbn_stage5_block3_dw_bn/moving_mean", "shape": [960], "dtype": "float32"}, {"name": "bbn_stage5_block3_dw_bn/moving_variance", "shape": [960], "dtype": "float32"}, {"name": "bbn_stage5_block3_project_conv/kernel", "shape": [1, 1, 960, 160], "dtype": "float32"}, {"name": "bbn_stage5_block3_project_bn/gamma", "shape": [160], "dtype": "float32"}, {"name": "bbn_stage5_block3_project_bn/beta", "shape": [160], "dtype": "float32"}, {"name": "bbn_stage5_block3_project_bn/moving_mean", "shape": [160], "dtype": "float32"}, {"name": "bbn_stage5_block3_project_bn/moving_variance", "shape": [160], "dtype": "float32"}, {"name": "bbn_stage5_block4_expand_conv/kernel", "shape": [1, 1, 160, 960], "dtype": "float32"}, {"name": "bbn_stage5_block4_expand_bn/gamma", "shape": [960], "dtype": "float32"}, {"name": "bbn_stage5_block4_expand_bn/beta", "shape": [960], "dtype": "float32"}, {"name": "bbn_stage5_block4_expand_bn/moving_mean", "shape": [960], "dtype": "float32"}, {"name": "bbn_stage5_block4_expand_bn/moving_variance", "shape": [960], "dtype": "float32"}, {"name": "bbn_stage5_block4_dw_conv/depthwise_kernel", "shape": [3, 3, 960, 1], "dtype": "float32"}, {"name": "bbn_stage5_block4_dw_bn/gamma", "shape": [960], "dtype": "float32"}, {"name": "bbn_stage5_block4_dw_bn/beta", "shape": [960], "dtype": "float32"}, {"name": "bbn_stage5_block4_dw_bn/moving_mean", "shape": [960], "dtype": "float32"}, {"name": "bbn_stage5_block4_dw_bn/moving_variance", "shape": [960], "dtype": "float32"}, {"name": "bbn_stage5_block4_project_conv/kernel", "shape": [1, 1, 960, 320], "dtype": "float32"}, {"name": "bbn_stage5_block4_project_bn/gamma", "shape": [320], "dtype": "float32"}, {"name": "bbn_stage5_block4_project_bn/beta", "shape": [320], "dtype": "float32"}, {"name": "bbn_stage5_block4_project_bn/moving_mean", "shape": [320], "dtype": "float32"}, {"name": "bbn_stage5_block4_project_bn/moving_variance", "shape": [320], "dtype": "float32"}, {"name": "ssd_2_conv/kernel", "shape": [1, 1, 320, 1280], "dtype": "float32"}, {"name": "ssd_2_conv_bn/gamma", "shape": [1280], "dtype": "float32"}, {"name": "ssd_2_conv_bn/beta", "shape": [1280], "dtype": "float32"}, {"name": "ssd_2_conv_bn/moving_mean", "shape": [1280], "dtype": "float32"}, {"name": "ssd_2_conv_bn/moving_variance", "shape": [1280], "dtype": "float32"}, {"name": "ssd_3_conv/kernel", "shape": [1, 1, 1280, 256], "dtype": "float32"}, {"name": "ssd_3_conv_bn/gamma", "shape": [256], "dtype": "float32"}, {"name": "ssd_3_conv_bn/beta", "shape": [256], "dtype": "float32"}, {"name": "ssd_3_conv_bn/moving_mean", "shape": [256], "dtype": "float32"}, {"name": "ssd_3_conv_bn/moving_variance", "shape": [256], "dtype": "float32"}, {"name": "ssd_3_dw_conv/depthwise_kernel", "shape": [3, 3, 256, 1], "dtype": "float32"}, {"name": "ssd_3_dw_bn/gamma", "shape": [256], "dtype": "float32"}, {"name": "ssd_3_dw_bn/beta", "shape": [256], "dtype": "float32"}, {"name": "ssd_3_dw_bn/moving_mean", "shape": [256], "dtype": "float32"}, {"name": "ssd_3_dw_bn/moving_variance", "shape": [256], "dtype": "float32"}, {"name": "ssd_3_conv2/kernel", "shape": [1, 1, 256, 512], "dtype": "float32"}, {"name": "ssd_3_conv2_bn/gamma", "shape": [512], "dtype": "float32"}, {"name": "ssd_3_conv2_bn/beta", "shape": [512], "dtype": "float32"}, {"name": "ssd_3_conv2_bn/moving_mean", "shape": [512], "dtype": "float32"}, {"name": "ssd_3_conv2_bn/moving_variance", "shape": [512], "dtype": "float32"}, {"name": "ssd_4_conv/kernel", "shape": [1, 1, 512, 128], "dtype": "float32"}, {"name": "ssd_4_conv_bn/gamma", "shape": [128], "dtype": "float32"}, {"name": "ssd_4_conv_bn/beta", "shape": [128], "dtype": "float32"}, {"name": "ssd_4_conv_bn/moving_mean", "shape": [128], "dtype": "float32"}, {"name": "ssd_4_conv_bn/moving_variance", "shape": [128], "dtype": "float32"}, {"name": "ssd_4_dw_conv/depthwise_kernel", "shape": [3, 3, 128, 1], "dtype": "float32"}, {"name": "ssd_4_dw_bn/gamma", "shape": [128], "dtype": "float32"}, {"name": "ssd_4_dw_bn/beta", "shape": [128], "dtype": "float32"}, {"name": "ssd_4_dw_bn/moving_mean", "shape": [128], "dtype": "float32"}, {"name": "ssd_4_dw_bn/moving_variance", "shape": [128], "dtype": "float32"}, {"name": "ssd_4_conv2/kernel", "shape": [1, 1, 128, 256], "dtype": "float32"}, {"name": "ssd_4_conv2_bn/gamma", "shape": [256], "dtype": "float32"}, {"name": "ssd_4_conv2_bn/beta", "shape": [256], "dtype": "float32"}, {"name": "ssd_4_conv2_bn/moving_mean", "shape": [256], "dtype": "float32"}, {"name": "ssd_4_conv2_bn/moving_variance", "shape": [256], "dtype": "float32"}, {"name": "ssd_5_conv/kernel", "shape": [1, 1, 256, 128], "dtype": "float32"}, {"name": "ssd_5_conv_bn/gamma", "shape": [128], "dtype": "float32"}, {"name": "ssd_5_conv_bn/beta", "shape": [128], "dtype": "float32"}, {"name": "ssd_5_conv_bn/moving_mean", "shape": [128], "dtype": "float32"}, {"name": "ssd_5_conv_bn/moving_variance", "shape": [128], "dtype": "float32"}, {"name": "ssd_5_dw_conv/depthwise_kernel", "shape": [3, 3, 128, 1], "dtype": "float32"}, {"name": "ssd_5_dw_bn/gamma", "shape": [128], "dtype": "float32"}, {"name": "ssd_5_dw_bn/beta", "shape": [128], "dtype": "float32"}, {"name": "ssd_5_dw_bn/moving_mean", "shape": [128], "dtype": "float32"}, {"name": "ssd_5_dw_bn/moving_variance", "shape": [128], "dtype": "float32"}, {"name": "ssd_5_conv2/kernel", "shape": [1, 1, 128, 256], "dtype": "float32"}, {"name": "ssd_5_conv2_bn/gamma", "shape": [256], "dtype": "float32"}, {"name": "ssd_5_conv2_bn/beta", "shape": [256], "dtype": "float32"}, {"name": "ssd_5_conv2_bn/moving_mean", "shape": [256], "dtype": "float32"}, {"name": "ssd_5_conv2_bn/moving_variance", "shape": [256], "dtype": "float32"}, {"name": "ssd_6_conv/kernel", "shape": [1, 1, 256, 64], "dtype": "float32"}, {"name": "ssd_6_conv_bn/gamma", "shape": [64], "dtype": "float32"}, {"name": "ssd_6_conv_bn/beta", "shape": [64], "dtype": "float32"}, {"name": "ssd_6_conv_bn/moving_mean", "shape": [64], "dtype": "float32"}, {"name": "ssd_6_conv_bn/moving_variance", "shape": [64], "dtype": "float32"}, {"name": "ssd_6_dw_conv/depthwise_kernel", "shape": [3, 3, 64, 1], "dtype": "float32"}, {"name": "ssd_6_dw_bn/gamma", "shape": [64], "dtype": "float32"}, {"name": "ssd_6_dw_bn/beta", "shape": [64], "dtype": "float32"}, {"name": "ssd_6_dw_bn/moving_mean", "shape": [64], "dtype": "float32"}, {"name": "ssd_6_dw_bn/moving_variance", "shape": [64], "dtype": "float32"}, {"name": "ssd_6_conv2/kernel", "shape": [1, 1, 64, 128], "dtype": "float32"}, {"name": "ssd_6_conv2_bn/gamma", "shape": [128], "dtype": "float32"}, {"name": "ssd_6_conv2_bn/beta", "shape": [128], "dtype": "float32"}, {"name": "ssd_6_conv2_bn/moving_mean", "shape": [128], "dtype": "float32"}, {"name": "ssd_6_conv2_bn/moving_variance", "shape": [128], "dtype": "float32"}, {"name": "ssd_cls1_dw_conv/depthwise_kernel", "shape": [3, 3, 576, 1], "dtype": "float32"}, {"name": "ssd_cls2_dw_conv/depthwise_kernel", "shape": [3, 3, 1280, 1], "dtype": "float32"}, {"name": "ssd_cls3_dw_conv/depthwise_kernel", "shape": [3, 3, 512, 1], "dtype": "float32"}, {"name": "ssd_cls4_dw_conv/depthwise_kernel", "shape": [3, 3, 256, 1], "dtype": "float32"}, {"name": "ssd_cls5_dw_conv/depthwise_kernel", "shape": [3, 3, 256, 1], "dtype": "float32"}, {"name": "ssd_cls6_dw_conv/depthwise_kernel", "shape": [3, 3, 128, 1], "dtype": "float32"}, {"name": "ssd_box1_dw_conv/depthwise_kernel", "shape": [3, 3, 576, 1], "dtype": "float32"}, {"name": "ssd_box2_dw_conv/depthwise_kernel", "shape": [3, 3, 1280, 1], "dtype": "float32"}, {"name": "ssd_box3_dw_conv/depthwise_kernel", "shape": [3, 3, 512, 1], "dtype": "float32"}, {"name": "ssd_box4_dw_conv/depthwise_kernel", "shape": [3, 3, 256, 1], "dtype": "float32"}, {"name": "ssd_box5_dw_conv/depthwise_kernel", "shape": [3, 3, 256, 1], "dtype": "float32"}, {"name": "ssd_box6_dw_conv/depthwise_kernel", "shape": [3, 3, 128, 1], "dtype": "float32"}, {"name": "ssd_cls1_dw_bn/gamma", "shape": [576], "dtype": "float32"}, {"name": "ssd_cls1_dw_bn/beta", "shape": [576], "dtype": "float32"}, {"name": "ssd_cls1_dw_bn/moving_mean", "shape": [576], "dtype": "float32"}, {"name": "ssd_cls1_dw_bn/moving_variance", "shape": [576], "dtype": "float32"}, {"name": "ssd_cls2_dw_bn/gamma", "shape": [1280], "dtype": "float32"}, {"name": "ssd_cls2_dw_bn/beta", "shape": [1280], "dtype": "float32"}, {"name": "ssd_cls2_dw_bn/moving_mean", "shape": [1280], "dtype": "float32"}, {"name": "ssd_cls2_dw_bn/moving_variance", "shape": [1280], "dtype": "float32"}, {"name": "ssd_cls3_dw_bn/gamma", "shape": [512], "dtype": "float32"}, {"name": "ssd_cls3_dw_bn/beta", "shape": [512], "dtype": "float32"}, {"name": "ssd_cls3_dw_bn/moving_mean", "shape": [512], "dtype": "float32"}, {"name": "ssd_cls3_dw_bn/moving_variance", "shape": [512], "dtype": "float32"}, {"name": "ssd_cls4_dw_bn/gamma", "shape": [256], "dtype": "float32"}, {"name": "ssd_cls4_dw_bn/beta", "shape": [256], "dtype": "float32"}, {"name": "ssd_cls4_dw_bn/moving_mean", "shape": [256], "dtype": "float32"}, {"name": "ssd_cls4_dw_bn/moving_variance", "shape": [256], "dtype": "float32"}, {"name": "ssd_cls5_dw_bn/gamma", "shape": [256], "dtype": "float32"}, {"name": "ssd_cls5_dw_bn/beta", "shape": [256], "dtype": "float32"}, {"name": "ssd_cls5_dw_bn/moving_mean", "shape": [256], "dtype": "float32"}, {"name": "ssd_cls5_dw_bn/moving_variance", "shape": [256], "dtype": "float32"}, {"name": "ssd_cls6_dw_bn/gamma", "shape": [128], "dtype": "float32"}, {"name": "ssd_cls6_dw_bn/beta", "shape": [128], "dtype": "float32"}, {"name": "ssd_cls6_dw_bn/moving_mean", "shape": [128], "dtype": "float32"}, {"name": "ssd_cls6_dw_bn/moving_variance", "shape": [128], "dtype": "float32"}, {"name": "ssd_box1_dw_bn/gamma", "shape": [576], "dtype": "float32"}, {"name": "ssd_box1_dw_bn/beta", "shape": [576], "dtype": "float32"}, {"name": "ssd_box1_dw_bn/moving_mean", "shape": [576], "dtype": "float32"}, {"name": "ssd_box1_dw_bn/moving_variance", "shape": [576], "dtype": "float32"}, {"name": "ssd_box2_dw_bn/gamma", "shape": [1280], "dtype": "float32"}, {"name": "ssd_box2_dw_bn/beta", "shape": [1280], "dtype": "float32"}, {"name": "ssd_box2_dw_bn/moving_mean", "shape": [1280], "dtype": "float32"}, {"name": "ssd_box2_dw_bn/moving_variance", "shape": [1280], "dtype": "float32"}, {"name": "ssd_box3_dw_bn/gamma", "shape": [512], "dtype": "float32"}, {"name": "ssd_box3_dw_bn/beta", "shape": [512], "dtype": "float32"}, {"name": "ssd_box3_dw_bn/moving_mean", "shape": [512], "dtype": "float32"}, {"name": "ssd_box3_dw_bn/moving_variance", "shape": [512], "dtype": "float32"}, {"name": "ssd_box4_dw_bn/gamma", "shape": [256], "dtype": "float32"}, {"name": "ssd_box4_dw_bn/beta", "shape": [256], "dtype": "float32"}, {"name": "ssd_box4_dw_bn/moving_mean", "shape": [256], "dtype": "float32"}, {"name": "ssd_box4_dw_bn/moving_variance", "shape": [256], "dtype": "float32"}, {"name": "ssd_box5_dw_bn/gamma", "shape": [256], "dtype": "float32"}, {"name": "ssd_box5_dw_bn/beta", "shape": [256], "dtype": "float32"}, {"name": "ssd_box5_dw_bn/moving_mean", "shape": [256], "dtype": "float32"}, {"name": "ssd_box5_dw_bn/moving_variance", "shape": [256], "dtype": "float32"}, {"name": "ssd_box6_dw_bn/gamma", "shape": [128], "dtype": "float32"}, {"name": "ssd_box6_dw_bn/beta", "shape": [128], "dtype": "float32"}, {"name": "ssd_box6_dw_bn/moving_mean", "shape": [128], "dtype": "float32"}, {"name": "ssd_box6_dw_bn/moving_variance", "shape": [128], "dtype": "float32"}, {"name": "ssd_cls1conv2/kernel", "shape": [1, 1, 576, 8], "dtype": "float32"}, {"name": "ssd_cls2conv2/kernel", "shape": [1, 1, 1280, 12], "dtype": "float32"}, {"name": "ssd_cls3conv2/kernel", "shape": [1, 1, 512, 12], "dtype": "float32"}, {"name": "ssd_cls4conv2/kernel", "shape": [1, 1, 256, 12], "dtype": "float32"}, {"name": "ssd_cls5conv2/kernel", "shape": [1, 1, 256, 8], "dtype": "float32"}, {"name": "ssd_cls6conv2/kernel", "shape": [1, 1, 128, 8], "dtype": "float32"}, {"name": "ssd_box1conv2/kernel", "shape": [1, 1, 576, 16], "dtype": "float32"}, {"name": "ssd_box2conv2/kernel", "shape": [1, 1, 1280, 24], "dtype": "float32"}, {"name": "ssd_box3conv2/kernel", "shape": [1, 1, 512, 24], "dtype": "float32"}, {"name": "ssd_box4conv2/kernel", "shape": [1, 1, 256, 24], "dtype": "float32"}, {"name": "ssd_box5conv2/kernel", "shape": [1, 1, 256, 16], "dtype": "float32"}, {"name": "ssd_box6conv2/kernel", "shape": [1, 1, 128, 16], "dtype": "float32"}, {"name": "ssd_cls1conv2_bn/gamma", "shape": [8], "dtype": "float32"}, {"name": "ssd_cls1conv2_bn/beta", "shape": [8], "dtype": "float32"}, {"name": "ssd_cls1conv2_bn/moving_mean", "shape": [8], "dtype": "float32"}, {"name": "ssd_cls1conv2_bn/moving_variance", "shape": [8], "dtype": "float32"}, {"name": "ssd_cls2conv2_bn/gamma", "shape": [12], "dtype": "float32"}, {"name": "ssd_cls2conv2_bn/beta", "shape": [12], "dtype": "float32"}, {"name": "ssd_cls2conv2_bn/moving_mean", "shape": [12], "dtype": "float32"}, {"name": "ssd_cls2conv2_bn/moving_variance", "shape": [12], "dtype": "float32"}, {"name": "ssd_cls3conv2_bn/gamma", "shape": [12], "dtype": "float32"}, {"name": "ssd_cls3conv2_bn/beta", "shape": [12], "dtype": "float32"}, {"name": "ssd_cls3conv2_bn/moving_mean", "shape": [12], "dtype": "float32"}, {"name": "ssd_cls3conv2_bn/moving_variance", "shape": [12], "dtype": "float32"}, {"name": "ssd_cls4conv2_bn/gamma", "shape": [12], "dtype": "float32"}, {"name": "ssd_cls4conv2_bn/beta", "shape": [12], "dtype": "float32"}, {"name": "ssd_cls4conv2_bn/moving_mean", "shape": [12], "dtype": "float32"}, {"name": "ssd_cls4conv2_bn/moving_variance", "shape": [12], "dtype": "float32"}, {"name": "ssd_cls5conv2_bn/gamma", "shape": [8], "dtype": "float32"}, {"name": "ssd_cls5conv2_bn/beta", "shape": [8], "dtype": "float32"}, {"name": "ssd_cls5conv2_bn/moving_mean", "shape": [8], "dtype": "float32"}, {"name": "ssd_cls5conv2_bn/moving_variance", "shape": [8], "dtype": "float32"}, {"name": "ssd_cls6conv2_bn/gamma", "shape": [8], "dtype": "float32"}, {"name": "ssd_cls6conv2_bn/beta", "shape": [8], "dtype": "float32"}, {"name": "ssd_cls6conv2_bn/moving_mean", "shape": [8], "dtype": "float32"}, {"name": "ssd_cls6conv2_bn/moving_variance", "shape": [8], "dtype": "float32"}, {"name": "ssd_box1conv2_bn/gamma", "shape": [16], "dtype": "float32"}, {"name": "ssd_box1conv2_bn/beta", "shape": [16], "dtype": "float32"}, {"name": "ssd_box1conv2_bn/moving_mean", "shape": [16], "dtype": "float32"}, {"name": "ssd_box1conv2_bn/moving_variance", "shape": [16], "dtype": "float32"}, {"name": "ssd_box2conv2_bn/gamma", "shape": [24], "dtype": "float32"}, {"name": "ssd_box2conv2_bn/beta", "shape": [24], "dtype": "float32"}, {"name": "ssd_box2conv2_bn/moving_mean", "shape": [24], "dtype": "float32"}, {"name": "ssd_box2conv2_bn/moving_variance", "shape": [24], "dtype": "float32"}, {"name": "ssd_box3conv2_bn/gamma", "shape": [24], "dtype": "float32"}, {"name": "ssd_box3conv2_bn/beta", "shape": [24], "dtype": "float32"}, {"name": "ssd_box3conv2_bn/moving_mean", "shape": [24], "dtype": "float32"}, {"name": "ssd_box3conv2_bn/moving_variance", "shape": [24], "dtype": "float32"}, {"name": "ssd_box4conv2_bn/gamma", "shape": [24], "dtype": "float32"}, {"name": "ssd_box4conv2_bn/beta", "shape": [24], "dtype": "float32"}, {"name": "ssd_box4conv2_bn/moving_mean", "shape": [24], "dtype": "float32"}, {"name": "ssd_box4conv2_bn/moving_variance", "shape": [24], "dtype": "float32"}, {"name": "ssd_box5conv2_bn/gamma", "shape": [16], "dtype": "float32"}, {"name": "ssd_box5conv2_bn/beta", "shape": [16], "dtype": "float32"}, {"name": "ssd_box5conv2_bn/moving_mean", "shape": [16], "dtype": "float32"}, {"name": "ssd_box5conv2_bn/moving_variance", "shape": [16], "dtype": "float32"}, {"name": "ssd_box6conv2_bn/gamma", "shape": [16], "dtype": "float32"}, {"name": "ssd_box6conv2_bn/beta", "shape": [16], "dtype": "float32"}, {"name": "ssd_box6conv2_bn/moving_mean", "shape": [16], "dtype": "float32"}, {"name": "ssd_box6conv2_bn/moving_variance", "shape": [16], "dtype": "float32"}]}]}